Flappy Bird DQN/my_model.ckpt (torch, 611998 bytes, 7 tensors)

0.weight f4 [200, 6]
0	0xbda76f48	-0.08175522
1	0x3d86ed14	0.06588188
2	0xbf72c495	-0.9483121
3	0xbd37f191	-0.04490811
4	0xbd8e4218	-0.069462
5	0x3e8aa02d	0.2707533
6	0x3c6725fe	0.014108179
7	0x3ebd9bc2	0.37032896
8	0xbd81ebf2	-0.06343831
9	0xbd8b0c8d	-0.06789503
10	0xbe04ef45	-0.12981899
11	0x3ddac6d3	0.10682454
12	0x3dd7e5fc	0.10541913
13	0x3d94d14b	0.07266482
14	0xbe9e765a	-0.3094967
15	0x3eaebf66	0.341304
16	0x3ea215d3	0.31657276
17	0xbe493ffa	-0.19653311
18	0xbe918c42	-0.2842732
19	0x3c45f185	0.0120815085
20	0x3e36f252	0.17865875
21	0x3e6b902d	0.23004217
22	0x3e31cd2e	0.17363426
23	0xbec4c25b	-0.3842953
24	0xbf7a0cbe	-0.97675693
25	0xbecc9f9b	-0.3996552
26	0x3e22c64c	0.15895957
27	0xbe47a19b	-0.19495241
28	0x3de7c002	0.113159195
29	0x3d057e75	0.032591302
30	0xbf0d28cc	-0.55140376
31	0x3e18c8af	0.14920305
32	0xbebadb74	-0.36495554
33	0x3d308d74	0.04310365
34	0x3e5ca487	0.21547137
35	0x3e078a65	0.13236387
36	0xbed77c06	-0.4208681
37	0xbe375b99	-0.17906035
38	0x3e0653fc	0.13117975
39	0xbd31ea91	-0.04343659
40	0x3e812237	0.25221416
41	0xbee9e3df	-0.45681664
42	0x3f15cb0f	0.5851297
43	0x3e3e872f	0.18606256
44	0xbe3e1455	-0.18562444
45	0x3e95c627	0.2925274
46	0xbdea8711	-0.11451543
47	0x3eb041c3	0.34425172
48	0x3ef9fd35	0.48825994
49	0x3e8e710a	0.27820617
50	0xbe0ec141	-0.13940908
51	0xbe2eeba3	-0.17082076
52	0xbe2dec68	-0.16984713
53	0x3d1f3eaf	0.03887814
54	0x3f0fced4	0.5617497
55	0xbe2aa690	-0.16665101
56	0xbe5c3b0e	-0.21506903
57	0xbe648032	-0.22314528
58	0x3e10f502	0.14155963
59	0x3e83b420	0.25723362
60	0xbeddbfb9	-0.43310335
61	0xbda8e684	-0.08247092
62	0xbdcdbf7b	-0.100462876
63	0xbebdaaaa	-0.3704427
64	0x3b0d54e7	0.0021565498
65	0x3db1f477	0.08689206
66	0xbe9475e6	-0.289962
67	0x3df8416f	0.121218555
68	0xbe855e4e	-0.2604851
69	0x3e7e3671	0.24825455
70	0x3e5700c4	0.20996386
71	0xbec44287	-0.38332006
72	0xbd9c3b58	-0.076285064
73	0xbe429668	-0.19002688
74	0x3b9ff39b	0.004881335
75	0x3ef68a5a	0.4815243
76	0xbc7de366	-0.015496111
77	0xbdbbebad	-0.09175811
78	0xbe8bc885	-0.27301422
79	0xbebbe20e	-0.36695904
80	0xbe758790	-0.23977494
81	0x3e5ef0bc	0.2177152
82	0xbe706dec	-0.23479432
83	0xbeb1908f	-0.34680602
84	0x3e9b1d97	0.30296013
85	0x3e851f10	0.2600026
86	0x3def19bb	0.116748296
87	0xbd6ac203	-0.05731393
88	0xbc93bbee	-0.018033948
89	0xbea988cb	-0.33112177
90	0x3cf94720	0.030429423
91	0x3c1c4300	0.009537458
92	0xbe124fa2	-0.1428819
93	0xbeb57330	-0.35439444
94	0xbeb42cbe	-0.35190386
95	0xbe8877b6	-0.26653832
96	0xbe95e341	-0.29274943
97	0xbd8a30b1	-0.067475684
98	0xbe11bcc5	-0.14232166
99	0xbeb7861f	-0.35844514
100	0x3e7868e4	0.24258763
101	0xbe8a21d7	-0.26978943
102	0xbf800a63	-1.000317
103	0xbd83f3fa	-0.06443019
104	0xbe322f1c	-0.17400783
105	0xbe1d484e	-0.15359613
106	0x3e7261db	0.23670141
107	0x3ea6db5d	0.32589236
108	0xbe82a99a	-0.2552002
109	0xbe4ae500	-0.19813919
110	0x3d8b0c38	0.0678944
111	0xbd7129b8	-0.058877677
112	0x3e6bbe24	0.23021752
113	0xbe97f1ca	-0.29676658
114	0xbf81b8ac	-1.0134482
115	0x3ec31be7	0.38107225
116	0x3ea0e3f9	0.3142393
117	0x3ce4428b	0.027863761
118	0x3e02e9dd	0.12784524
119	0x3e388e2e	0.18022987
120	0xbf42db08	-0.76115465
121	0xbeb76d30	-0.3582549
122	0xbe9316a4	-0.2872821
123	0xbe926d94	-0.28599226
124	0xbd4ca8b0	-0.04996556
125	0x3e898ff3	0.26867637
126	0xbf4df78a	-0.8045584
127	0x3d32114e	0.043473534
128	0xbc30a167	-0.010780669
129	0xbea34b91	-0.3189359
130	0xbdba49e1	-0.090961225
131	0x3e7c7b27	0.24656354
132	0xbebb4abe	-0.3658046
133	0xbe056a60	-0.1302886
134	0xbd3f18f8	-0.04665467
135	0xbe317d49	-0.17332949
136	0xbd154830	-0.036445796
137	0x3e5726b0	0.21010852
138	0xbf8092cf	-1.0044802
139	0x3ce652e5	0.028115699
140	0xbe6f62e7	-0.23377572
141	0xbe9543c9	-0.29153278
142	0xbd4a025d	-0.04931866
143	0x3e76e181	0.2410946
144	0xbf420fde	-0.7580546
145	0x3ec141fd	0.37745658
146	0xbed4bd48	-0.4155066
147	0x3dc1f6bc	0.09470889
148	0x3eaf04a3	0.34183225
149	0x3eae5d93	0.34055766
150	0xbf8586ba	-1.043174
151	0xbe6ea65b	-0.23305647
152	0x3e3f8219	0.18701972
153	0xbec7cea7	-0.3902485
154	0x3de56304	0.11200526
155	0x3da6a6cc	0.08137283
156	0xbf29abd9	-0.66277844
157	0xbe8e0b37	-0.2774293
158	0xbea7d51c	-0.32779777
159	0x3da1e7ec	0.07905564
160	0x3eab3af2	0.3344341
161	0xbe27e92a	-0.16397539
162	0xbf338321	-0.7012196
163	0x3dbb7ae5	0.091543
164	0xbde7ef4a	-0.11324938
165	0xbd0a3e82	-0.03375102
166	0xbdb7d3b6	-0.089759275
167	0x3eade0d7	0.33960602
168	0x3ebf0414	0.373078
169	0x3eacaafc	0.337242
170	0x3ec86489	0.39139202
171	0xbedaf0df	-0.42761895
172	0xbdd61b65	-0.10454444
173	0xbea4abfa	-0.32162458
174	0x3ec1502e	0.37756485
175	0x3d6ccf80	0.057815075
176	0xbe90aa7e	-0.28255075
177	0x3dd97fb0	0.106200576
178	0xbe2f29d4	-0.171058
179	0xbe1f9524	-0.15584236
180	0x3e2576d6	0.16158614
181	0xbe36e412	-0.1786044
182	0x3d87a45f	0.06623148
183	0xbd843353	-0.06455102
184	0xbc294428	-0.010331191
185	0xbd14058c	-0.036138102
186	0x3ebc8fe2	0.36828524
187	0xbd1bf648	-0.03807667
188	0xbd986090	-0.07440293
189	0xbea70eea	-0.32628566
190	0x3e1e9540	0.15486622
191	0xbe95b82d	-0.29242077
192	0x3d1fc392	0.03900487
193	0x3d806faa	0.06271298
194	0x3db9b8dd	0.09068463
195	0x3d16cb5f	0.036815044
196	0xbea14a8f	-0.31502196
197	0xbbd57239	-0.0065138605
198	0x3e3dc399	0.18531646
199	0x3ebac4a6	0.36478156
200	0x3c55a080	0.013038754
201	0xbc7d0d67	-0.01544509
202	0xbe08c007	-0.13354503
203	0xbe48382b	-0.19552676
204	0x3f254257	0.6455435
205	0xbb7dcce6	-0.0038726865
206	0x3e1bb6a9	0.15206398
207	0xbec5b4a2	-0.38614374
208	0x3d791e34	0.06081982
209	0x3eae0393	0.33987102
210	0xbf3497d3	-0.70544165
211	0x3e0e0591	0.13869311
212	0x3e82b2f5	0.25527158
213	0x3e9aa2f2	0.30202442
214	0xbe48fa9e	-0.19626853
215	0xbda20975	-0.0791196
216	0x3e6f67d2	0.23379448
217	0x3e9f0385	0.31057373
218	0x3df8a58a	0.12140949
219	0xbe815bb2	-0.2526527
220	0xbe09ed6b	-0.13469474
221	0xbcca55aa	-0.024699051
222	0xbf0c10d5	-0.54713184
223	0xbaf1a0e5	-0.0018434791
224	0xbedeb9f8	-0.43501258
225	0x3f09c93e	0.53822696
226	0xbca1e75f	-0.019763647
227	0x3e2d79eb	0.1694104
228	0xbef2e1f7	-0.47438022
229	0x3e9b0613	0.30278072
230	0x3d45c759	0.048285816
231	0x3e951136	0.29114693
232	0x3d8f7c97	0.070061855
233	0x3e1d5c27	0.15367185
234	0x3f55afae	0.8347119
235	0x3dcac6ca	0.09901197
236	0xbdaedfdb	-0.08538791
237	0x3d24af6d	0.04020636
238	0xbc5ed601	-0.013600827
239	0xbe81a2c1	-0.25319484
240	0xbf551f88	-0.8325124
241	0xbe76c201	-0.24097444
242	0xbdf3e41a	-0.11908741
243	0xbe571f58	-0.2100805
244	0x3e9c62ed	0.30544224
245	0xbe8aca91	-0.2710767
246	0x3f19b9be	0.60049045
247	0x3df9c9b3	0.12196674
248	0x3e688980	0.22708702
249	0xbdbf9e49	-0.093563624
250	0x3e713f26	0.23559245
251	0x3e337c36	0.17527851
252	0x3eba51e1	0.36390594
253	0x3dc02d43	0.09383633
254	0xbef3a6d0	-0.47588205
255	0xbef702a1	-0.48244193

0.bias f4 [200]
0	0x3ea6a0d8	0.3254459
1	0x3ebdf0aa	0.37097675
2	0x3ccd5f8a	0.02506997
3	0x3d573716	0.05254277
4	0xbea0593c	-0.3131808
5	0x3e8333bf	0.25625417
6	0x3d451d94	0.04812391
7	0xbd8dded0	-0.06927264
8	0x3ea2031a	0.3164299
9	0x3c542df5	0.01295041
10	0xbc9bca9e	-0.019017514
11	0x3e8e0c33	0.27743682
12	0xbe1b9759	-0.15194453
13	0x3eabb16e	0.33533806
14	0x39f0dc36	0.00045940437
15	0xbe9bcb23	-0.3042842
16	0xbd7626d0	-0.06009561
17	0xbd7cab23	-0.061686646
18	0xbe9c450e	-0.30521435
19	0xbddb58ed	-0.107103206
20	0xbcbf30fb	-0.023338785
21	0xbd109330	-0.03529662
22	0xbeab49fc	-0.33454883
23	0x3eab98b1	0.33514932
24	0x3e8d4c25	0.27597156
25	0xbe096ce2	-0.13420442
26	0xbd1708a2	-0.036873467
27	0xbd508651	-0.050909344
28	0x3eaeaf07	0.3411791
29	0xbebc0871	-0.3672519
30	0x3e78783a	0.24264613
31	0xbe821de2	-0.25413424
32	0x3e1e56be	0.15462777
33	0x3e611687	0.2198125
34	0xbe83f20e	-0.2577061
35	0x3e531b4b	0.2061588
36	0x3e506a5e	0.20353076
37	0x3e423298	0.18964612
38	0x3db6b7ea	0.089217976
39	0x3edd54cd	0.4322876
40	0x3e6abd19	0.22923698
41	0x3e860cc6	0.2618162
42	0x3d638911	0.05555064
43	0x3cc7483c	0.024326436
44	0x3dee2f8a	0.11630161
45	0x3e094427	0.13404904
46	0x3e8421a0	0.25806904
47	0x3e717df5	0.23583205
48	0x3ea4184d	0.3204979
49	0xbe1ea5c9	-0.1549293
50	0x3e5ba8b6	0.21451077
51	0x3ee6221e	0.44947904
52	0xbd4c1469	-0.049824152
53	0xbdcd8e53	-0.10036912
54	0x3e8ebdd5	0.27879205
55	0xbe751618	-0.2393421
56	0x3dfe9147	0.12430053
57	0x3e779d1d	0.24181028
58	0x3eab7620	0.3348856
59	0xbe5eb593	-0.21748953
60	0xbea752ee	-0.32680458
61	0x3ae08652	0.0017129874
62	0x3ea49b7e	0.3214988
63	0xbeb4f690	-0.35344362
64	0xbddb83fc	-0.107185334
65	0xbe458d9f	-0.19292305
66	0x3e33170e	0.17489263
67	0x3c989e03	0.018630033
68	0x3e8385e2	0.25688082
69	0x3d9cb84d	0.0765234
70	0xbd84dc7d	-0.06487367
71	0xbeb8a778	-0.3606527
72	0xbeb7a6f2	-0.35869557
73	0xbeb39cf8	-0.35080695
74	0x3ea6c84f	0.32574698
75	0xbe5cfcaa	-0.21580759
76	0xbea6daba	-0.3258875
77	0xbebbed8b	-0.36704668
78	0x3e8c5665	0.27409664
79	0x3e134136	0.14380345
80	0x3e7fb707	0.24972163
81	0xbeb1e882	-0.34747702
82	0xbe2fc495	-0.17164834
83	0x3e4a0126	0.19727
84	0x3e8adb3a	0.27120382
85	0xbd852cb3	-0.06502666
86	0x3ec70d9b	0.38877568
87	0xbc81aa95	-0.01582841
88	0xbd40452e	-0.046940975
89	0xbecc1149	-0.39856938
90	0x3df0f821	0.11766077
91	0xbe819a83	-0.25313196
92	0x3a06dfa4	0.00051450194
93	0xbee570bb	-0.4481257
94	0x3e709a38	0.2349633
95	0x3e2cccf8	0.16875064
96	0x3e8501be	0.25977892
97	0xbe58edeb	-0.21184509
98	0x3dc51a7b	0.096241914
99	0x3db0fd54	0.086420685
100	0xbe0c649a	-0.13710251
101	0x3e2a339b	0.16621248
102	0x3e9ae587	0.3025324
103	0x3dfa0571	0.12208069
104	0x3d885852	0.06657471
105	0xbe66e469	-0.22548069
106	0x3d553575	0.052052934
107	0xbe693656	-0.22774634
108	0xbecac4aa	-0.39603168
109	0x3ea324f8	0.31864142
110	0xbe96293d	-0.29328337
111	0xbe91acda	-0.28452188
112	0xbec47a61	-0.38374618
113	0x3dd39568	0.10331231
114	0xbd36bc82	-0.04461337
115	0xbe285754	-0.16439563
116	0x3ee6a3db	0.45046887
117	0xbe87af22	-0.26500803
118	0x3e99683d	0.2996234
119	0x3e009b3c	0.12559217
120	0xbdd16a10	-0.10225308
121	0xbc9b0cd6	-0.01892702
122	0xbdd892fc	-0.1057491
123	0xbecbd4c8	-0.39810777
124	0x3d1dc826	0.038520955
125	0xbe453397	-0.19257961
126	0xbd88e3ce	-0.06684075
127	0x3e673e02	0.22582248
128	0xbe9273aa	-0.2860387
129	0xbd12b3e8	-0.035816103
130	0xbd85ad8c	-0.06527242
131	0xbe1b145a	-0.15144482
132	0x3e4c45ca	0.19948497
133	0x3d608446	0.054813646
134	0x3d875a29	0.066089936
135	0x3e99b504	0.30020916
136	0x3ed8d650	0.42351007
137	0xbdaa73f1	-0.08322895
138	0x3d7d57cb	0.061851304
139	0xbe21cbd5	-0.15800412
140	0xbeabc5ca	-0.3354934
141	0xbed6ce25	-0.4195415
142	0x3e45197d	0.19248004
143	0xbe0242bc	-0.1272077
144	0x3cd9bfa0	0.026580632
145	0x3ec6e079	0.38843134
146	0x3eb8e89f	0.36114976
147	0x3ea0344f	0.31289908
148	0x3d0ee447	0.03488567
149	0x3df8f7b6	0.12156622
150	0x3ebf4eb8	0.37364745
151	0xbe4b0815	-0.19827302
152	0x3e882153	0.26587924
153	0x3de29360	0.11063266
154	0x3e7f12af	0.24909471
155	0xbe200d06	-0.15629968
156	0x3dae602c	0.08514437
157	0x3ec9f8de	0.39447683
158	0xbdd90c22	-0.10598017
159	0x3e0feef9	0.14056005
160	0xbe9512e3	-0.29115972
161	0x3eb93de8	0.36180043
162	0x3cf0b104	0.029381283
163	0xbe65b31b	-0.22431605
164	0xbed31121	-0.41224006
165	0x3eb7468d	0.35796013
166	0x3e1ab11b	0.15106623
167	0xbeb31d64	-0.3498336
168	0x3e3b489c	0.18289417
169	0x3d8210fc	0.06350896
170	0x3ce4c9f8	0.027928337
171	0xbe9d60dd	-0.30737963
172	0xbe50e068	-0.20398104
173	0xbddbf3f4	-0.1073989
174	0xbcd452e0	-0.025918424
175	0x3e51c490	0.20485139
176	0xbeb1e3d4	-0.34744132
177	0xbe16cb90	-0.1472609
178	0xbeb9fac2	-0.36324126
179	0xbdd11a0b	-0.102100454
180	0xbc9bc86b	-0.019016465
181	0xbe63df5d	-0.22253175
182	0xbe28e685	-0.16494186
183	0xbeb2be95	-0.34911028
184	0x3e5c8426	0.21534786
185	0x3ea9c607	0.33158895
186	0x3d759e54	0.059965447
187	0xbe9d4b50	-0.3072152
188	0x3e448172	0.19190004
189	0xbe87998a	-0.26484329
190	0x3dad5bcd	0.08464775
191	0xbe43cc9e	-0.19121024
192	0x3e92d6e4	0.28679574
193	0xbdae32d4	-0.085057884
194	0x3e7b851f	0.245625
195	0xbe6335c3	-0.22188477
196	0xbeb75e15	-0.35813966
197	0xbe273336	-0.16328129
198	0xbd50cfb0	-0.050979316
199	0xbd2bc340	-0.04193425

2.weight f4 [500, 200]
0	0xbd815d58	-0.06316632
1	0x3c5c8f91	0.013461963
2	0xbd41e085	-0.04733326
3	0xbd0133db	-0.031543594
4	0x3bf96100	0.0076104403
5	0xbd763135	-0.06010552
6	0xbcd60c26	-0.02612884
7	0xbd98c103	-0.07458689
8	0xbdabb0b5	-0.083833136
9	0xbcbde423	-0.023180073
10	0xbc9f5376	-0.019448977
11	0xbd95d2da	-0.07315607
12	0x3acfecbf	0.0015863403
13	0xbda657da	-0.08122225
14	0xbcf59452	-0.029977951
15	0xbb6a7720	-0.003577657
16	0xbd1e1cff	-0.03860187
17	0xbcb6b7ba	-0.022304405
18	0x3d6d9d06	0.058011077
19	0x3d52ddd3	0.05148108
20	0xbd0f78bd	-0.035027254
21	0x3d518f16	0.051161848
22	0xbb736ea0	-0.0037144795
23	0xbce120f4	-0.027481534
24	0xbd498c03	-0.04920579
25	0xbd015504	-0.031575218
26	0xbd52e857	-0.051491108
27	0x3d5f2587	0.05447915
28	0xbb1d568e	-0.002400789
29	0x3d2a7328	0.041613728
30	0x3ccda3af	0.025102464
31	0x3cc18b78	0.023626074
32	0x3c86e70f	0.0164676
33	0xbb638ee0	-0.0034722611
34	0xbcb93142	-0.022606496
35	0x3d63b966	0.05559673
36	0x3d0f203c	0.03494285
37	0xbdb8859a	-0.090098575
38	0xbd906a7b	-0.070515595
39	0xbbbfa3ca	-0.0058483826
40	0x3d2a1281	0.041521553
41	0xbb855ba2	-0.0040697614
42	0xbd5e804d	-0.054321576
43	0xbc9a72d6	-0.018853586
44	0xbcbc09dd	-0.022953922
45	0x3b63b56c	0.0034745587
46	0xbd02a6f9	-0.03189752
47	0xbd9d72d1	-0.07687915
48	0xbba2b3c4	-0.0049652774
49	0xbd66358d	-0.056203414
50	0xbd8868c9	-0.06660611
51	0x3c4072d6	0.011746129
52	0x3d19163b	0.037374716
53	0xbc2e67d5	-0.010644873
54	0xbd633c01	-0.055477146
55	0xbc1ffe98	-0.00976529
56	0x3bd2e9b4	0.006436551
57	0xbda75095	-0.08169667
58	0xbd81785e	-0.06321786
59	0x3d880d3f	0.066431515
60	0xbb18cf53	-0.0023316934
61	0xbcaf7fd5	-0.02142326
62	0x3d077d7c	0.033078656
63	0x3d83941f	0.06424736
64	0xbd2cbdf6	-0.04217335
65	0xbd7eae9e	-0.062178247
66	0x3c8b4416	0.01700024
67	0x3d42735e	0.047473304
68	0xbd8fd50f	-0.070230596
69	0xbce8b272	-0.028405402
70	0xbb02e134	-0.0019970657
71	0x3c941146	0.018074643
72	0xbc3e83fc	-0.011628147
73	0xbcc92d3e	-0.024557706
74	0x3d0f1a56	0.034937225
75	0xbd309738	-0.043112963
76	0x3c2d9f58	0.010597073
77	0xbd204c73	-0.039135408
78	0xbd9c33ff	-0.07627105
79	0xbd244e91	-0.04011399
80	0xbd655ba8	-0.055995613
81	0x3bf92d72	0.0076042945
82	0x3d835453	0.06412568
83	0xbbfb16a8	-0.007662613
84	0xbcde7c7b	-0.027158966
85	0x3d84c1c3	0.064822696
86	0x3d153d5d	0.036435474
87	0x3d6e1b65	0.058131594
88	0xbcdac0bb	-0.02670323
89	0x3d5da6a0	0.054113984
90	0xbd171257	-0.036882725
91	0x3d0fd0cc	0.035111234
92	0xbcdffb66	-0.027341556
93	0x3cacdb24	0.021100588
94	0x3d4f0d3c	0.05054973
95	0x3a6acdb5	0.00089570443
96	0x3b7419f3	0.0037246912
97	0xbcac5be4	-0.02103991
98	0xbb2e04c0	-0.0026553124
99	0x3d0130b6	0.031540595
100	0x3d526e54	0.05137475
101	0x3bd7a1dc	0.0065805744
102	0x3c1f3fac	0.00971977
103	0x3d06103e	0.032730334
104	0xbd9c92cd	-0.076451875
105	0xbd506b6c	-0.050883695
106	0xbd858fb4	-0.0652155
107	0xbcc26692	-0.02373055
108	0x3d34e514	0.04416378
109	0xbc953643	-0.01821435
110	0xbd8fdba5	-0.07024316
111	0xbd192bf4	-0.037395433
112	0xb83ff000	-4.5761466e-05
113	0xbd16a85f	-0.036781665
114	0xbcaed29d	-0.021340663
115	0xbcaa7b05	-0.020810613
116	0xbc80d732	-0.015727613
117	0x3c9b088e	0.018924978
118	0xbd88c521	-0.06678224
119	0x3d03ea15	0.03220566
120	0xbcb225ce	-0.021746542
121	0x3d06e6f2	0.03293509
122	0xbd772412	-0.060337134
123	0x3d7c2b8a	0.06156496
124	0x3d096d17	0.0335513
125	0xbd2abebe	-0.041685812
126	0xbd93217a	-0.071841195
127	0xbb87fa5e	-0.004149719
128	0xbc2737b8	-0.0102061555
129	0x3d1d1866	0.038353346
130	0x3d1ebcc2	0.038754232
131	0xbb009b3a	-0.0019623772
132	0xbcd2373e	-0.025661107
133	0xbd7fc50e	-0.062443785
134	0x3c9a529b	0.018838217
135	0x3d8209f5	0.063495554
136	0xbd8fa5a1	-0.07014013
137	0x3d692171	0.056916658
138	0xbdc13485	-0.094338454
139	0x3d2cdc24	0.04220213
140	0xbd76f7ea	-0.060295023
141	0xbd7faee3	-0.062422644
142	0xbd77425d	-0.060366023
143	0x3d61659a	0.055028535
144	0xbd0879cd	-0.033319283
145	0xbd882e8e	-0.066495046
146	0x3ce0757f	0.027399777
147	0xbd911eae	-0.0708593
148	0x3d34bcc6	0.04412534
149	0x3d3a18c5	0.04543378
150	0xbd8d6dcc	-0.06905708
151	0xbd165460	-0.03670156
152	0xbdb4c634	-0.08826867
153	0xbd1a714b	-0.0377057
154	0x3d65de5d	0.056120265
155	0xbd11b89b	-0.035576444
156	0xbcab189a	-0.020885754
157	0x3c80fab4	0.015744545
158	0xbce254fd	-0.027628416
159	0xbd412935	-0.04715844
160	0x3d8aa70f	0.06770145
161	0xbd740575	-0.059575517
162	0xbd9ec1aa	-0.07751782
163	0xbd41cee9	-0.047316466
164	0x3d747a9a	0.059687234
165	0xbd8a26e9	-0.06745703
166	0xbd5bb1ca	-0.05363635
167	0xbce682ee	-0.028138604
168	0x38faaf1b	0.00011953545
169	0xbc4eddf3	-0.012626159
170	0x3c3d085f	0.01153764
171	0xbd6fb55b	-0.058522563
172	0x3c878984	0.016545065
173	0x3d14264e	0.036169343
174	0xbd194fb7	-0.037429538
175	0x3b20512c	0.0024462445
176	0xbc925edc	-0.017867498
177	0xbcfc37bb	-0.030788293
178	0x3d6be1b5	0.057588298
179	0x3b8fb207	0.004385236
180	0xbd10fa67	-0.035395052
181	0xbd0f0718	-0.034918875
182	0x3c87865a	0.016543556
183	0x3c03339e	0.008007912
184	0xbd03f5f8	-0.032216996
185	0x3d00bd5e	0.031430595
186	0xbd68c255	-0.056825954
187	0xbcab84fc	-0.020937435
188	0x3ce47f9c	0.02789288
189	0xbb8372f0	-0.0040115044
190	0xbd3a437a	-0.045474507
191	0xbd5ef55f	-0.054433223
192	0x3ce6f628	0.028193548
193	0xbc7eb854	-0.015546877
194	0xbcaeeb31	-0.021352382
195	0x3d541037	0.051773276
196	0xbd6c9a7f	-0.057764526
197	0xbd4bd84e	-0.04976683
198	0xbc73894c	-0.014864277
199	0xbd5001a0	-0.0507828
200	0x3b6e8f20	0.0036401227
201	0x3d468b7c	0.048472866
202	0xbd3081b5	-0.04309245
203	0x3d68beb2	0.056822486
204	0x3bd9f750	0.0066517964
205	0xbd5aa058	-0.053375572
206	0x3d5e007c	0.05419968
207	0xbd8ed15d	-0.069735266
208	0xb9ce4100	-0.0003933981
209	0xbd1ca6c4	-0.038244978
210	0xbb15bb00	-0.0022847056
211	0xbcbb2c44	-0.022848256
212	0x3d24b024	0.040207043
213	0x3d794e0a	0.06086544
214	0x3cc74928	0.024326876
215	0xbd7b3414	-0.061328962
216	0x3d781212	0.06056411
217	0xbca84802	-0.020542149
218	0xbd419244	-0.04725863
219	0xbd67c2d2	-0.05658228
220	0x3c99a0e4	0.018753476
221	0xbc47c7f0	-0.012193665
222	0x3c840480	0.016115427
223	0x3ca0cf64	0.019630142
224	0xbd0c8ec6	-0.034315847
225	0x3d67b986	0.056573413
226	0x3d6d2802	0.057899483
227	0xb971e600	-0.00023069233
228	0x3cdd6194	0.027024068
229	0xbd43e378	-0.047824353
230	0x3d857cb1	0.065179236
231	0xbb679460	-0.003533624
232	0xbc8cba36	-0.017178636
233	0xbd2b3524	-0.041798726
234	0xbd1d39d6	-0.038385235
235	0x3bbc9fa0	0.0057563335
236	0xbd01cd51	-0.031689946
237	0xbb8bda70	-0.004267983
238	0x3ccc4ec8	0.02493991
239	0x3d148310	0.036257803
240	0x3d83434d	0.06409321
241	0xbd0579ec	-0.032586977
242	0xbd777b1e	-0.060420148
243	0xbd44ae12	-0.04801757
244	0xbd269960	-0.040673614
245	0xbcb50e12	-0.022101436
246	0x3d5aaca6	0.053387307
247	0x3d4a2fe0	0.049362063
248	0x3bcc3200	0.0062315464
249	0xbc42ff4c	-0.011901688
250	0xbce9670a	-0.028491516
251	0xbbea6e80	-0.007154286
252	0x3d34aae4	0.044108286
253	0x3c77d080	0.015125394
254	0xbd4e347c	-0.05034302
255	0xbcdba38a	-0.02681138

2.bias f4 [500]
0	0x3b6cb7d3	0.003612031
1	0xbd2a0a71	-0.041513864
2	0x3dd4849f	0.10376858
3	0x3d1e3c76	0.03863188
4	0x3d2ec257	0.042665806
5	0x3ba0d7a5	0.0049085193
6	0x3d91d59b	0.0712082
7	0xbc145946	-0.009054488
8	0xbd8e2878	-0.069413126
9	0xbc397839	-0.011320167
10	0x3e26ba4e	0.16282007
11	0xbdbce862	-0.09224011
12	0xbd7170cc	-0.058945462
13	0x3ada9569	0.0016676608
14	0x3e1f49e6	0.15555534
15	0x3da44946	0.08021788
16	0xbd840e7a	-0.06448074
17	0xbcd7d8f4	-0.026348568
18	0xbd7a5e91	-0.06112534
19	0xbd003490	-0.031300128
20	0x3e1fdc52	0.1561139
21	0x3dbcac92	0.09212603
22	0xbd05c6cd	-0.032660294
23	0xbcf0556a	-0.029337604
24	0xbd1bb7ed	-0.038017202
25	0x3a834cef	0.0010017435
26	0xbccc88e2	-0.024967615
27	0x3d8abf08	0.067747176
28	0xbd083b5f	-0.033259746
29	0x3d42fe7a	0.04760597
30	0x3d1e4ae7	0.03864565
31	0x3d187d46	0.037228845
32	0x3cd4ac7d	0.025961155
33	0xbc8f184f	-0.017467646
34	0x3e00c1f1	0.12573983
35	0x3cca54ac	0.024698578
36	0x3d9f9590	0.07792199
37	0xbcb147d1	-0.02164069
38	0xbd02d55e	-0.031941764
39	0xbd5cbb59	-0.053889606
40	0xbd309c1e	-0.043117635
41	0x3d4a9aa6	0.04946389
42	0x3dc5462a	0.09632523
43	0xbd8377fc	-0.064193696
44	0x3c8453ab	0.016153177
45	0x3b48cd6e	0.0030640024
46	0xbd98223c	-0.07428405
47	0xbbd36855	-0.0064516463
48	0xbd82ef15	-0.063932575
49	0xbd1ee208	-0.03878978
50	0x3d933e83	0.071896575
51	0xbd8a78bc	-0.067613095
52	0xbd899d87	-0.06719499
53	0x3ce316a0	0.02772075
54	0xbdda51cf	-0.10660135
55	0xbd460324	-0.04834284
56	0x3ca872a0	0.02056247
57	0x3ca3f1ce	0.020012762
58	0xbce3fe87	-0.027831329
59	0xbd155064	-0.03645362
60	0xbc68b291	-0.01420273
61	0x3d91c34c	0.07117328
62	0x3cfb81d1	0.03070155
63	0xbd2aa9d0	-0.041665852
64	0xbd0aac05	-0.033855457
65	0xbd59267b	-0.053015213
66	0xbd86bd01	-0.065790184
67	0xbd035af7	-0.032069173
68	0xbcfb3ef2	-0.030669663
69	0xbd92b964	-0.07164267
70	0x3c5786eb	0.013154726
71	0xbda6fc2d	-0.081535675
72	0xbd3a60f6	-0.045502625
73	0x3dfa7e2d	0.12231097
74	0xbd97f155	-0.07419077
75	0xbd549c85	-0.05190708
76	0xbd14ec90	-0.036358416
77	0xbcc41fed	-0.023941005
78	0x3c297159	0.010341966
79	0x3d83a264	0.06427458
80	0x3da7471c	0.0816786
81	0x3be6d090	0.0070439056
82	0x3ab35c53	0.0013684131
83	0x3d5df9f4	0.054193452
84	0x3cdb86bb	0.026797643
85	0x3d0d9c07	0.034572627
86	0x3d642a23	0.055704247
87	0xbcfe3608	-0.031031623
88	0x3c1e0cb3	0.009646582
89	0x3d66ceec	0.05634968
90	0xbc018663	-0.007905575
91	0x3c5a0db1	0.013308928
92	0x3d204dcc	0.039136693
93	0xbb566aaa	-0.0032717385
94	0x3c050c47	0.008120603
95	0x3d36d552	0.04463703
96	0xbd337cd7	-0.04382023
97	0xbda8af2c	-0.082365364
98	0xbcb6e636	-0.02232657
99	0x3d5a7502	0.053334244
100	0xbc4e2572	-0.01258217
101	0xbd6ba538	-0.05753061
102	0xbaf974c0	-0.0019031987
103	0xbc4f8fdc	-0.012668576
104	0x3cd6ecae	0.026235905
105	0xbd9faf0e	-0.07797061
106	0xbd5ff579	-0.05467746
107	0xbdc0b7d7	-0.09410065
108	0xbda15006	-0.078765914
109	0x3cbed616	0.023295444
110	0x3dc055ef	0.093913905
111	0x3d5dba1a	0.05413256
112	0xbcbd4ce1	-0.023107948
113	0xbcd3d892	-0.025860105
114	0x3c6f353e	0.014600096
115	0xbd5213e4	-0.0512885
116	0x3d0dcb78	0.03461787
117	0x3d408a73	0.047007035
118	0x3dee3444	0.116310626
119	0xbd81afcd	-0.063323595
120	0x3dd91337	0.10599368
121	0x3dba4bff	0.09096526
122	0xbc9f480b	-0.019443532
123	0xbd1abb2e	-0.037776165
124	0xbd449b26	-0.047999524
125	0x3d5c2a3b	0.05375121
126	0x3d3a6731	0.045508567
127	0xbccee1a8	-0.025254086
128	0x3d2e42ef	0.0425443
129	0x3cae3a0a	0.02126791
130	0xbd13b747	-0.03606346
131	0x3d793835	0.06084462
132	0x3cca0a25	0.02466304
133	0x3c033d90	0.008010283
134	0x3c1926aa	0.009347597
135	0xbc80fa1d	-0.015744263
136	0x3d9230aa	0.07138188
137	0xbd8d702b	-0.0690616
138	0x3c92ba36	0.017911058
139	0x3d9f74a5	0.0778592
140	0xbd2edaad	-0.042689014
141	0xbd0cdd53	-0.03439076
142	0x3baac925	0.0052119666
143	0xbd796158	-0.06088385
144	0x3e14cfb5	0.14532359
145	0x3c958309	0.018250959
146	0x3bfc6a52	0.007703104
147	0x3da516ed	0.08061013
148	0x3ddbf043	0.10739186
149	0x3dc15394	0.094397694
150	0xbd584c61	-0.052807216
151	0xbb51c560	-0.0032008514
152	0x3cb8e776	0.022571307
153	0x3c82717b	0.015923252
154	0x3dbe4222	0.092899576
155	0x3c263087	0.010143406
156	0x3ce5d0c0	0.028053641
157	0x3d6fdbb4	0.058559135
158	0xbcc4108a	-0.023933668
159	0xbd2c3e2f	-0.04205149
160	0x3b3e36d5	0.0029024382
161	0xbd2d2855	-0.04227479
162	0x3d02e89a	0.031960107
163	0x3d3a3200	0.04545784
164	0xbcd9db2b	-0.026593765
165	0x3cc21919	0.023693608
166	0x3d531903	0.051537525
167	0x3d0e7def	0.03478807
168	0xbbc2b764	-0.005942272
169	0xbb06f17b	-0.002059071
170	0x3db3221d	0.08746741
171	0x3de0881e	0.10963462
172	0x3e0d7d5b	0.1381735
173	0xbd7bc50a	-0.061467208
174	0xbcdabf45	-0.026702533
175	0x3d226f19	0.039656732
176	0xbd79a1a0	-0.060945153
177	0xbcf78835	-0.030216316
178	0xbc244153	-0.01002534
179	0x3ce0128e	0.027352598
180	0xbcad6650	-0.02116695
181	0xbd71f541	-0.059071783
182	0xbc13103a	-0.008976037
183	0x3b971132	0.004610204
184	0xbd3bb165	-0.045823473
185	0x3c702736	0.014657786
186	0xbd024895	-0.0318075
187	0x3c5c08c0	0.013429821
188	0xbd3a668d	-0.045507956
189	0xbc217f89	-0.009857067
190	0x3d4283c5	0.047488946
191	0x3d3cfe9a	0.046141244
192	0xbda95db7	-0.08269828
193	0xbcde7d97	-0.027159495
194	0x3ca2129b	0.019784262
195	0xbb2a9ad1	-0.002603222
196	0x3d065725	0.03279795
197	0xbcf6666d	-0.030078137
198	0xbd8be0a6	-0.06829958
199	0xbc972f66	-0.018455219
200	0x3da58fe2	0.08084084
201	0x3c748936	0.014925292
202	0x3e113d5b	0.14183562
203	0x3c1360c6	0.008995241
204	0x3d9baa23	0.076008104
205	0x3c3bf1e4	0.011471245
206	0x3c3de51e	0.01159027
207	0x3adcf7c0	0.0016858503
208	0xbc55661c	-0.013024833
209	0xbb7eeb00	-0.0038897395
210	0x3a44499b	0.0007487775
211	0xbcc763a6	-0.024339508
212	0xbc8b07d0	-0.016971499
213	0xbcc40da3	-0.023932284
214	0x3d44cb66	0.04804554
215	0xbd13e65a	-0.036108352
216	0xbd789741	-0.060691122
217	0x3cb9d9ce	0.022686865
218	0xbd49ec19	-0.049297426
219	0x3d1b4896	0.03791102
220	0xbcab5d08	-0.020918384
221	0xbd80ddbc	-0.062922925
222	0xbd7c8162	-0.061646827
223	0x3b58b431	0.0033066387
224	0xbc3f45ae	-0.011674328
225	0x3cc78332	0.024354551
226	0x3c911051	0.017707976
227	0xbbfbb8c0	-0.007681936
228	0x3ac00ecb	0.0014652846
229	0x3d5b0c3d	0.05347847
230	0x3dc560f2	0.096376315
231	0xbc40eca6	-0.011775171
232	0x3cf86a34	0.03032408
233	0xbd7ea79b	-0.06217156
234	0xbca8f418	-0.020624205
235	0xbb952bfa	-0.0045523616
236	0x3d852b5a	0.06502409
237	0x3dc64d74	0.09682742
238	0xbc732be0	-0.014842004
239	0x3cc0d030	0.023536772
240	0x3dd127c0	0.1021266
241	0xbd838f58	-0.06423825
242	0xbd38512e	-0.044999294
243	0xb9d975f9	-0.00041477362
244	0xbd1689e9	-0.036752615
245	0x3e3e79c2	0.18601134
246	0xbce84916	-0.028355163
247	0xbd361214	-0.044450834
248	0x3caf0095	0.021362582
249	0xbcd4527e	-0.025918242
250	0x3c9efd73	0.019407963
251	0xbc8af72e	-0.016963568
252	0xbc6fb69e	-0.014630942
253	0xbd90737f	-0.07053279
254	0x3d3d1629	0.04616371
255	0x3dc5b9b0	0.09654558

4.weight f4 [100, 500]
0	0xbd45525c	-0.048174247
1	0x3cd34966	0.025791835
2	0x3d3b84b0	0.045780838
3	0xbc05aa74	-0.008158315
4	0xbc050e23	-0.008121046
5	0x3d27dc3b	0.040981513
6	0xbc247194	-0.010036845
7	0x3b1d8800	0.002403736
8	0x3d05e91f	0.032693025
9	0x3d1836a2	0.037161477
10	0x3d008adc	0.031382427
11	0x3c2a5e6c	0.0103984885
12	0x3c30e09c	0.010795739
13	0xbbd80be4	-0.0065932143
14	0x3d0e7ad4	0.034785107
15	0x3d8aa38d	0.06769476
16	0xbb86a154	-0.0041085873
17	0xbc3c1b66	-0.011481142
18	0x3cf4ad62	0.029867832
19	0x3cbf0d37	0.023321731
20	0x3d0321f1	0.03201479
21	0x3d71938c	0.058978602
22	0xbcc92abd	-0.024556512
23	0x3cd08992	0.025456224
24	0x3d2ce10a	0.0422068
25	0xbb4886e9	-0.003059799
26	0x3b25d5bf	0.0025304405
27	0x3d3e4032	0.04644794
28	0xbbdb2625	-0.006687897
29	0x3ca79b7b	0.020459881
30	0x3d85d9b5	0.06535665
31	0x3dbd315c	0.0923793
32	0xbd3ee4d4	-0.046604946
33	0x3ba11b53	0.0049165874
34	0x3d594410	0.053043425
35	0x3dbc8e14	0.09206787
36	0x3d5c326f	0.053759035
37	0xbbcc3923	-0.006232397
38	0xbcf253e7	-0.029581023
39	0x3d43e0c1	0.047821764
40	0xbd024837	-0.03180715
41	0x3cff771e	0.03118473
42	0x3c0dcda2	0.008654984
43	0x3c930115	0.017944852
44	0xbcdddc0a	-0.027082462
45	0x3c2aef3d	0.010433015
46	0x3daf72aa	0.08566792
47	0xbab924ef	-0.0014125387
48	0x3caf8bee	0.021429028
49	0xbaf48780	-0.0018656105
50	0x3d936ebd	0.07198856
51	0x3d79381c	0.060844526
52	0xbb7d9030	-0.0038690679
53	0x3df87200	0.12131119
54	0xbced9b9e	-0.029004868
55	0x3a5ab72f	0.00083433365
56	0x3e0d2fd0	0.1378777
57	0x3d8afa1c	0.06785986
58	0xbd4b2a57	-0.049600925
59	0xbc42b163	-0.011883113
60	0x3b4586f2	0.0030140248
61	0x3c38e3dc	0.011284795
62	0xbd02550b	-0.031819385
63	0x3b854337	0.0040668505
64	0xbd2d9c72	-0.042385526
65	0x3bd814bc	0.0065942686
66	0x3d0031a2	0.031297334
67	0xbbee7fb6	-0.007278408
68	0x3b828870	0.00398355
69	0xbcf9eb60	-0.030507743
70	0x3cc62648	0.024188176
71	0x3c9b0015	0.018920938
72	0xbd55e6e9	-0.052222166
73	0x3dfbd512	0.12296499
74	0x3d5df90a	0.05419258
75	0x3c93743f	0.017999766
76	0xbc3d076e	-0.011537416
77	0xbc1b4a41	-0.009478153
78	0xb7ffab27	-3.0478068e-05
79	0xbcf5d9df	-0.030011116
80	0x3ba3e80f	0.005002029
81	0xbd18901a	-0.0372468
82	0xbadd93e4	-0.0016905037
83	0xbd6be6d0	-0.057593167
84	0xb9b7d545	-0.00035063378
85	0x3dd190c1	0.10232688
86	0xb9a77449	-0.0003193936
87	0x3c10e37a	0.008843297
88	0x3bc1f42d	0.0059190006
89	0x3d6d0f45	0.05787589
90	0x3c5e4b09	0.013567694
91	0xbc0e6dd2	-0.008693175
92	0x3c463d0b	0.012099515
93	0x3d004291	0.031313483
94	0xbd0a3f2c	-0.03375165
95	0xbd281479	-0.04103515
96	0x3c1f44ef	0.009721025
97	0x3d1bd635	0.03804608
98	0xbb9bab7f	-0.0047506685
99	0x3cd59664	0.026072688
100	0x3a2873e7	0.0006425962
101	0xbc9eac03	-0.019369131
102	0x39b9df80	0.0003545247
103	0x3c6bad73	0.014384615
104	0xbeda9b2c	-0.42696512
105	0xbb49bdb0	-0.0030783229
106	0x3d154f55	0.03645261
107	0xbc4a8343	-0.012360397
108	0xba8a44cc	-0.0010549068
109	0x3ddcdfd5	0.1078488
110	0x3ca4be9d	0.020110423
111	0x3e2d3b27	0.16917096
112	0x3cd58818	0.026065871
113	0xbc02721a	-0.007961774
114	0xbd3e4349	-0.046450887
115	0x3db3d2cf	0.08780443
116	0x3d0eb354	0.03483899
117	0x3e21e24a	0.15808979
118	0x3d0b8e8f	0.0340715
119	0xbbd37e5a	-0.0064542713
120	0xbb73b65a	-0.0037187547
121	0xbc82845d	-0.015932256
122	0xbd010006	-0.031494163
123	0xbcc3b478	-0.023889765
124	0x3d9660e5	0.073427
125	0x3d1e6202	0.038667686
126	0xbd3f58b7	-0.046715464
127	0x3cae13ed	0.021249736
128	0xbe39be3d	-0.18138976
129	0xbc858ce2	-0.01630253
130	0xbbcdb668	-0.006277848
131	0xbdd96926	-0.106157586
132	0x3dbc1ed6	0.09185569
133	0xbd4f96c8	-0.050680906
134	0xbd0158e0	-0.0315789
135	0x3c6354e8	0.013875224
136	0xbca8a589	-0.020586746
137	0xbc8e7c02	-0.017393116
138	0x3c696501	0.014245273
139	0x3d1c3d8f	0.038144644
140	0x3cc81dee	0.024428334
141	0xbd0e455e	-0.034734122
142	0x3bbf6039	0.005840328
143	0x3ca83d88	0.020537153
144	0x3d79e0eb	0.061005514
145	0x3cbd0cd4	0.023077406
146	0xbddd6e44	-0.10812047
147	0xbd057ab0	-0.032587707
148	0x3d8ef872	0.06980981
149	0x3d4b51fa	0.049638726
150	0x3df726c6	0.12067942
151	0xbca90802	-0.020633701
152	0xbb87bd80	-0.004142463
153	0x3cf3f2c8	0.029778853
154	0x3e074f4e	0.13213846
155	0x3d60440f	0.054752406
156	0xbd4b921a	-0.04969988
157	0x3d0c100f	0.034195002
158	0x3d10c428	0.03534332
159	0x3c118acd	0.00888319
160	0x3d2bcbcf	0.041942414
161	0x3c9e6914	0.019337215
162	0xbd6c8472	-0.057743497
163	0xbc6f9817	-0.014623663
164	0x3cbd74cb	0.02312698
165	0x3bd582be	0.00651583
166	0xbe131c0c	-0.14366168
167	0xbc794ee8	-0.015216567
168	0x3bbb20ae	0.005710683
169	0x3dd0f9e0	0.1020391
170	0x3d1d2a1a	0.03837023
171	0x3d87dd7f	0.06634044
172	0xbbd15c0d	-0.006389147
173	0xbc743d79	-0.014907234
174	0xbd06352e	-0.03276556
175	0x3d6c8331	0.0577423
176	0xbc540dbc	-0.012942728
177	0x3b5d9d59	0.003381571
178	0xbc6791f3	-0.014133918
179	0xbd5d3ccb	-0.054013055
180	0x3ca3b2ac	0.019982658
181	0xbe7a78a4	-0.24460083
182	0x3db19faa	0.08673032
183	0x3da90c50	0.082543015
184	0x3bcbe76b	0.0062226555
185	0xbb8e99e1	-0.00435184
186	0xbc2fd6ac	-0.010732334
187	0x3d82c61b	0.06385442
188	0x3cab38eb	0.020901164
189	0x3b66d044	0.003521935
190	0xbce00fa3	-0.027351206
191	0xbc9907ff	-0.01868057
192	0xbc8d8762	-0.01727647
193	0x3c8f286e	0.017475333
194	0x3d4b2405	0.049594898
195	0xbca01545	-0.019541392
196	0x3d393e5d	0.04522549
197	0xbd12c4bc	-0.03583215
198	0x3c40c9c0	0.011766851
199	0xbee85052	-0.4537378
200	0x3d14405c	0.03619419
201	0xbca537ed	-0.020168269
202	0x3d10dd42	0.035367258
203	0x3dca4531	0.098764785
204	0x3bc65a69	0.006053258
205	0x3ce18dcf	0.02753344
206	0xbe441c8e	-0.19151518
207	0x3d8b5762	0.06803776
208	0x3ca430d2	0.02004281
209	0x3c811e70	0.015761584
210	0xbf00ef05	-0.50364715
211	0x3de7cb36	0.11318056
212	0xbd189feb	-0.037261885
213	0xbc62d70e	-0.013845218
214	0xbceee8ae	-0.029163685
215	0x3c2b7bd4	0.010466535
216	0x3c111a67	0.008856392
217	0xbe8c8bb6	-0.2745034
218	0xbd0b7848	-0.034050256
219	0xbc1f4c0a	-0.009722719
220	0xbd61ee2f	-0.05515879
221	0x3b2948a0	0.0025830641
222	0xbe176a68	-0.14786685
223	0x3c6bb3bb	0.014386113
224	0xbce6c0ab	-0.028168043
225	0xbdd0a5db	-0.101878844
226	0xbcfb5e96	-0.03068475
227	0xbb3c4675	-0.002872852
228	0x3d50c534	0.050969318
229	0xbed25f0d	-0.41088143
230	0x3d774eb4	0.06037779
231	0xbd31e76f	-0.043433603
232	0xbac13443	-0.0014740307
233	0xbb332747	-0.0027336644
234	0x3d349ba5	0.044093747
235	0x3caca555	0.02107493
236	0x3d6180b0	0.055054367
237	0xbcc542ca	-0.0240797
238	0xbe99d83b	-0.30047783
239	0x3d893a49	0.0670057
240	0x3cd5a357	0.026078863
241	0x3d3293a9	0.04359785
242	0x3e928b11	0.28621724
243	0x3d063bf9	0.032772038
244	0xbc64647c	-0.013939973
245	0x3db7bea5	0.089719094
246	0xbd19c4e6	-0.037541293
247	0xbcf67f2c	-0.030089937
248	0x3ba0c152	0.004905858
249	0xbd2cbe4b	-0.042173665
250	0xbd46f37b	-0.048572045
251	0xbcfb4181	-0.030670883
252	0x3dc70502	0.09717752
253	0x3c945bfc	0.018110268
254	0xbd07ed9a	-0.03318558
255	0x3d453e2b	0.04815499

4.bias f4 [100]
0	0x3df55f2a	0.11981042
1	0x3e8100e2	0.25195986
2	0x3e01ba7b	0.12668793
3	0xbd9b4754	-0.07581964
4	0x3df9518a	0.121737555
5	0x3dbc1f99	0.09185714
6	0x3d7e14cb	0.06203155
7	0x3dcafef5	0.099119104
8	0x3d95b08b	0.073090635
9	0xbbda18fd	-0.006655811
10	0x3d952205	0.07281879
11	0xbd662482	-0.05618716
12	0xbc91fc73	-0.017820572
13	0xbc4ad0b6	-0.012378862
14	0xbcc99f66	-0.02461214
15	0x3cf9b91c	0.030483775
16	0xbc36db19	-0.011160635
17	0x3a077b27	0.00051681924
18	0x3c2fca61	0.010729403
19	0xbc067f0a	-0.008208999
20	0xbc635ead	-0.013877553
21	0x3e02caf7	0.12772737
22	0x3b959e56	0.0045659943
23	0xbcf26f83	-0.029594189
24	0x3c0d3db5	0.008620669
25	0xbd16a28f	-0.03677612
26	0xbb96cbd4	-0.004601935
27	0x3dd9c718	0.10633677
28	0x3df62104	0.12018016
29	0xbd57cb1f	-0.052683946
30	0x3e82fe20	0.25584507
31	0xbc279d20	-0.010230333
32	0xbd48864d	-0.048956204
33	0x3cfed0e7	0.031105472
34	0xbbb0f9bf	-0.005400866
35	0xbc5256e6	-0.012838101
36	0xbd833342	-0.06406261
37	0xbbc1830e	-0.0059055155
38	0x3e005c6a	0.12535253
39	0x3d054a45	0.032541532
40	0x3e20701c	0.15667766
41	0x3e1f7690	0.15572572
42	0xbdd7a0ce	-0.10528718
43	0x3d0000af	0.031250652
44	0xbd28ff30	-0.04125899
45	0x3d1cd230	0.038286388
46	0xbbff3202	-0.007787944
47	0x3ccff81e	0.025386866
48	0xbdb47afe	-0.088125214
49	0x3dfe4b6a	0.12416728
50	0xbcb59b40	-0.022168756
51	0xbd92f198	-0.071749866
52	0xbb4f4a7d	-0.0031630092
53	0x3dda9290	0.10672486
54	0xbadd0268	-0.0016861679
55	0x3addea01	0.00169307
56	0xbc9cbb13	-0.019132173
57	0x3e35ed60	0.17766333
58	0xbcbab151	-0.02278963
59	0x3dde987a	0.10868926
60	0xbd2cacb5	-0.042156894
61	0x3e03d5ef	0.12874578
62	0x3c82e827	0.01597984
63	0xbc1f2986	-0.00971449
64	0x3db9d4b4	0.09073773
65	0xbb5b42f2	-0.003345665
66	0xbd487363	-0.048938166
67	0x3e1bdd29	0.15221085
68	0x3e1a9219	0.15094794
69	0xbd42efc5	-0.047591943
70	0x3d45ca82	0.04828883
71	0xbc7d9210	-0.015476719
72	0x3c65786e	0.014005763
73	0xbd6db4c2	-0.058033712
74	0xbcd344a9	-0.025789576
75	0x3db2969a	0.08720131
76	0x3e372cdf	0.1788821
77	0x3dbff1a4	0.09372261
78	0xbcd07027	-0.025444103
79	0xbcfd0113	-0.030884301
80	0x3dfb7a8d	0.12279234
81	0x3bce9663	0.0063045486
82	0xbcb7c9f2	-0.022435162
83	0x3db1be40	0.086788654
84	0x3df1df75	0.11810199
85	0xbd1d226d	-0.03836291
86	0xbc79a849	-0.015237876
87	0x3bda1697	0.006655525
88	0x3d948975	0.0725278
89	0xbcc1851c	-0.023623042
90	0xbd1353ab	-0.035968464
91	0x3c700edf	0.014651983
92	0xbcf34575	-0.029696206
93	0xbd714e0e	-0.05891233
94	0x3d9ca92b	0.07649454
95	0xbd7ce2a7	-0.06173959
96	0x3bc50cb4	0.006013477
97	0x3d845acf	0.06462633
98	0xbd5bf16c	-0.053697035
99	0x3dcea4db	0.100900374

6.weight f4 [2, 100]
0	0xbd94aa4a	-0.072590426
1	0xbf2e9d89	-0.6820913
2	0xbc0ed881	-0.008718611
3	0xbd236a6e	-0.03989642
4	0x3d99c19d	0.07507632
5	0xbe9e5fab	-0.30932364
6	0xbd44a577	-0.048009362
7	0x3db7b709	0.08970458
8	0x3e34e8c3	0.17666917
9	0xbd3a9a20	-0.04555714
10	0xbe1d8d37	-0.153859
11	0x3d444f3b	0.047927123
12	0xbacf0b03	-0.0015796128
13	0xbc696950	-0.0142463
14	0xbd774c32	-0.0603754
15	0xbdd37925	-0.10325841
16	0xba8d5800	-0.0010783672
17	0x3bf199ad	0.007373056
18	0xbbd01bd7	-0.006350975
19	0xbdacef2f	-0.08444058
20	0x3c973214	0.018456496
21	0x3d5fdc7a	0.054653622
22	0x3d29e3d4	0.04147704
23	0x3de6cd9d	0.11269686
24	0xbdb519a0	-0.08842778
25	0x3cc88142	0.024475697
26	0x38996000	7.31349e-05
27	0x3b21e55f	0.0024703366
28	0x3e0a14cd	0.13484497
29	0x3d3fd850	0.04683715
30	0xbf1656d4	-0.5872624
31	0xbcb2d27e	-0.021828886
32	0xbcb375a8	-0.021906689
33	0xbd85d9a9	-0.06535656
34	0x3d92e4a7	0.07172518
35	0x3c1e74ab	0.0096713705
36	0xbcbeebc5	-0.023305783
37	0x3d6c5cee	0.057705812
38	0xbad67c94	-0.0016364031
39	0x3d976425	0.07392148
40	0x3e150689	0.14553274
41	0x3dd78b8a	0.10524662
42	0xbc9e52e7	-0.01932664
43	0xbd8c27da	-0.068435386
44	0xbcb6b3b0	-0.022302479
45	0x3d8f3f2f	0.06994473
46	0xbd959eb8	-0.07305664
47	0xbadbf131	-0.0016780255
48	0xbd98a24a	-0.07452829
49	0x3d5fce09	0.05463985
50	0xbd19734b	-0.037463468
51	0xbd67bbdd	-0.056575645
52	0xbbeeaa56	-0.007283489
53	0xbe9190fe	-0.28430933
54	0x3d4d183d	0.050071944
55	0xbdddc8a8	-0.10829288
56	0x3d037581	0.032094482
57	0x3d99f9c1	0.0751834
58	0xbd823bcb	-0.06359061
59	0xbc850c0e	-0.0162411
60	0xbd5c012c	-0.053712055
61	0x3d90c745	0.07069258
62	0xbd7ee3c9	-0.06222895
63	0xbd14a6cc	-0.036291882
64	0x3dea3db4	0.1143755
65	0xbcf9b22a	-0.030480463
66	0xbd249859	-0.040184353
67	0x3e0fcf2d	0.14043875
68	0x3d204f3b	0.03913806
69	0x3d487782	0.048942097
70	0xbe6e2781	-0.23257257
71	0xbdaa90c5	-0.08328394
72	0xbd850b7b	-0.0649633
73	0x3bb26323	0.005443947
74	0xbccbee1b	-0.024893811
75	0x3efbf766	0.49212188
76	0x3d2189d0	0.03943807
77	0x3e6c3f0a	0.23070922
78	0xbd5ab8a3	-0.05339874
79	0x3b751a87	0.0037399845
80	0xbea7d713	-0.32781276
81	0x3d39f058	0.045395225
82	0x3d862c40	0.06551409
83	0x3d8bcacc	0.0682579
84	0xbcfacfab	-0.030616602
85	0xbd4aaca5	-0.049481053
86	0xbd5b3e3d	-0.053526152
87	0x3a3b5f00	0.000714764
88	0x3e211694	0.15731269
89	0xbd72f07e	-0.059311382
90	0xbc52435c	-0.012833443
91	0xbd13dbc8	-0.03609827
92	0x3cef751c	0.029230647
93	0xbd82ffa7	-0.06396418
94	0xbe2c8f1b	-0.16851465
95	0xbcd26124	-0.025681086
96	0xbe1535ec	-0.14571351
97	0xbec32e82	-0.3812142
98	0xbdde8407	-0.10865026
99	0x3e217120	0.1576581
100	0x3e267c0f	0.16258262
101	0xbee8a155	-0.45435587
102	0x3dfab4b5	0.122414984
103	0x3cb0e285	0.021592388
104	0x3da4889c	0.08033869
105	0x3dff5626	0.124676034
106	0xbe9a58b7	-0.3014581
107	0x3d416218	0.04721269
108	0xbd0919d2	-0.03347189
109	0x3b795f40	0.0038051158
110	0x3d8a09f1	0.067401774
111	0x3da76183	0.08172896
112	0x3c8239e9	0.015896754
113	0xbd24d14d	-0.040238667
114	0xbc9f69ef	-0.019459693
115	0xbe4c782d	-0.19967718
116	0x3ca1f66c	0.019770823
117	0xbc73a77a	-0.0148714725
118	0x37737f86	1.451362e-05
119	0xbbc74637	-0.0060813683
120	0x3db4ea58	0.0883376
121	0x3ded1ff4	0.1157836
122	0xbcd96350	-0.026536614
123	0xbe4e9cef	-0.20177053
124	0x3b35a15e	0.002771459
125	0xbc57f28c	-0.013180386
126	0xbd90133e	-0.0703492
127	0x3dc21541	0.0947671
128	0x3dcfe915	0.10151879
129	0x3dd36006	0.103210494
130	0xbe358a98	-0.1772865
131	0x3d97c78e	0.07411109
132	0xbcfd7ab2	-0.030942295
133	0x3d65d709	0.056113277
134	0xbd5aa535	-0.05338021
135	0xbd8e3556	-0.06943767
136	0xbc691827	-0.01422695
137	0xbd86ef84	-0.06588653
138	0x3db399e0	0.08769584
139	0xbe05fc8e	-0.13084623
140	0x3d907c35	0.070549406
141	0x3d91dc55	0.07122103
142	0x3d4b366e	0.049612455
143	0xbe943d0a	-0.2895282
144	0xbc987a7a	-0.018613089
145	0xbe9203dd	-0.28518572
146	0x3d82f364	0.06394079
147	0xbd76ec40	-0.0602839
148	0xbc653b51	-0.013991193
149	0x3de49fbd	0.1116328
150	0x3cf53031	0.029930206
151	0xbd6d7052	-0.057968445
152	0x3cb3ed51	0.021963747
153	0xbd98c7a9	-0.07459957
154	0x3d0e5f73	0.034758996
155	0xbe3e7935	-0.18600924
156	0x3d860917	0.065447025
157	0x3dd1caf0	0.102437854
158	0x3d5405e7	0.05176344
159	0x3e09c94e	0.13455698
160	0xbd8c17cb	-0.06840476
161	0x3e078007	0.13232432
162	0xbeb40ee9	-0.35167626
163	0xbd9faec6	-0.07797007
164	0x3c3cf11a	0.0115320925
165	0xb9a0c0c5	-0.00030661203
166	0xbdd1c9e6	-0.10243587
167	0x3d8a373a	0.06748815
168	0x3d5a5949	0.053307805
169	0x3cf15047	0.029457225
170	0xbe47e01b	-0.19519083
171	0x3d9bd7dc	0.07609531
172	0x3d3baf0c	0.045821235
173	0xbd45cff4	-0.048294023
174	0xbc3dfc73	-0.011595833
175	0x3f17470e	0.59092796
176	0x3e0c8c90	0.13725495
177	0x3e8f977c	0.2804526
178	0xbea6a4b3	-0.3254753
179	0x3c8b1398	0.016977116
180	0xbd9127d5	-0.070876755
181	0xbdad9d4a	-0.08477266
182	0x3c816568	0.015795425
183	0x3c3dfe6c	0.011596303
184	0x3e27af32	0.16375425
185	0x3d815dae	0.06316696
186	0xbd2f126d	-0.04274218
187	0x3c7ec64a	0.0155502055
188	0xbd25d025	-0.040481705
189	0x3bbce8c4	0.0057650525
190	0x3d4c51f6	0.04988285
191	0xbd15df7e	-0.036590092
192	0xbdb6aad3	-0.08919301
193	0xbd0a02cb	-0.03369407
194	0xbe5bd9e4	-0.21469837
195	0xbd85f981	-0.0654173
196	0x3873ee32	5.815755e-05
197	0xbd95f6b7	-0.07322448
198	0x3cce3380	0.025171041
199	0xbbb07017	-0.005384456
